handmade/cnn_mnist.ckpt (torch, 121689 bytes, 14 tensors)

cnn1.0.weight f4 [16, 1, 5, 5]
-0.051421102 0.15002085 -0.05848706 -0.03779247 -0.17053548 -0.063381135 0.121368304 -0.08536389
-0.06613699 -0.022365287 -0.27222613 -0.048197445 0.21014315 0.06931146 -0.03280245 0.005011456
-0.085050024 0.05314871 0.21016295 -0.09605335 0.13444449 -0.09488432 -0.21661834 0.0012922426
0.023359288 -0.060017187 0.019537035 0.14863539 0.085500754 -0.037740935 0.15502879 0.055640932
-0.14622399 0.093982 -0.22468673 0.03256754 0.044619635 0.13088652 -0.12479189 -0.22548224
0.09028617 -0.15419686 0.12468321 -0.12327591 -0.18530469 -0.19006254 0.20114376 0.0968838
-0.17944227 -0.23767528 0.105545476 -0.077959776 -0.24466634 -0.03493087 -0.2712256 -0.20677906
0.06325181 0.21733715 0.21579352 -0.09978959 0.04821407 -0.10223831 -0.0488721 0.1920086
-0.03605631 0.12005825 0.048043806 -0.19464777 -0.12491525 -0.0895807 -0.122760266 0.08088196
-0.08194569 0.11468602 -0.012858024 0.12963 0.0068626776 0.22427163 -0.21250129 -0.18218736
0.12670644 -0.04299966 -0.049664877 -0.0851287 -0.09599653 0.1211311 0.08999848 -0.20379204
-0.23527546 -0.1410136 -0.13790488 -0.10653172 -0.26855668 0.028121114 -0.02988625 0.049657192
-0.291511 -0.13788132 0.043845307 -0.045553546 -0.13852252 0.06952352 0.021405037 -0.082530625
-0.004207311 -0.11668081 0.09520285 0.077022254 -0.05308116 0.04585756 -0.17031628 0.016179027
0.09715952 -0.19740382 0.07030737 -0.13547963 0.05570252 0.23819365 -0.07943822 -0.054430854
-0.23393635 -0.20583007 0.24933122 -0.09451225 -0.050301638 -0.16244183 0.11038902 0.04465274
0.04530531 -0.082762666 0.21803015 0.2357154 -0.08856649 0.21821119 0.21718991 0.09727701
-0.06774432 0.14541803 0.038339872 -0.22556846 -0.15256208 0.012347602 -0.19852488 -0.2603414
-0.082283095 0.023157941 -0.028845398 -0.14699295 -0.17380732 0.08340095 -0.08275631 0.05668859
-0.2126536 -0.16015907 0.10356691 0.011162209 -0.021080824 0.025594074 -0.1888157 -0.2425571
-0.0660637 0.03586282 -0.05904752 0.09403085 -0.13192429 0.18125251 -0.12367182 0.011413488
0.09843933 -0.13682604 0.13832681 0.07491162 0.06528366 0.16074021 0.15198475 -0.20833792
-0.12958725 0.1400989 0.20454384 0.06550151 -0.18574947 0.039839275 0.048027255 -0.044792134
0.22521868 -0.18361631 -0.08053697 -0.09938207 0.229644 -0.013930209 -0.21745637 -0.09345263
-0.07431961 0.052187204 0.04993107 0.008445201 0.023937756 -0.17798181 -0.022363013 0.12819606
-0.31312385 -0.21319467 -0.11247078 -0.06498312 -0.045221232 -0.060780454 -0.026901048 -0.18655911
-0.24401431 -0.12408639 0.015340138 0.17534083 -0.021653887 0.047495317 -0.27125174 0.08553141
0.098272115 0.12973848 0.19419684 0.050985754 0.062130246 0.05024528 -0.15270486 -0.040510293
0.03615685 -0.005719702 -0.058134302 0.1924091 0.04805346 -0.08992087 5.4133587e-05 0.06582358
-0.17399108 -0.15104115 -0.17839146 -0.24302194 -0.19776234 -0.23906237 -0.14883392 0.044336002
-0.05391455 0.022977896 -0.070300415 0.15930593 0.17770848 -0.15760028 -0.12433304 -0.07990984
0.1905248 0.042505834 -0.0034880654 -0.10805873 0.12497786 0.19662385 0.1840066 -0.21970753
00000000: ef9e 52bd 119f 193e 2190 6fbd 47cc 1abd
00000010: daa0 2ebe f8cd 81bd f28f f83d 43d3 aebd
00000020: d572 87bd 6837 b7bc 3961 8bbe af6a 45bd
00000030: c42f 573e 2bf3 8d3d dd5b 06bd 2437 a43b
00000040: b52e aebd 76b2 593d f534 573e 9eb7 c4bd
00000050: d1ab 093e b652 c2bd 33d1 5dbe 7760 a93a
00000060: fa5b bf3c 95d4 75bd 220c a03c e033 183e
00000070: 051b af3d 3d96 1abd debf 1e3e bfe7 633d
00000080: bebb 15be a379 c03d 4714 66be 8a65 053d
00000090: 14c3 363d 1e07 063e e492 ffbd d1e4 66be
000000a0: f5e7 b83d c8e5 1dbe e959 ff3d 1578 fcbd
000000b0: 83c0 3dbe c19f 42be a1f8 4d3e 046b c63d
000000c0: b7bf 37be 2661 73be 3a28 d83d 60a9 9fbd
000000d0: d089 7abe ac13 0fbd 15de 8abe e4bd 53be
000000e0: 2a8a 813d a18d 5e3e faf8 5c3e 7c5e ccbd
000000f0: 1e7c 453d 5262 d1bd 1c2e 48bd e79d 443e
00000100: c8af 13bd 1ae1 f53d 95c9 443d bf51 47be
00000110: 91d3 ffbd 1676 b7bd bc69 fbbd 71a5 a53d
00000120: 24d3 a7bd 81e0 ea3d 76aa 52bc babd 043e
00000130: 50e0 e03b 76a7 653e f099 59be 538f 3abe
00000140: 55bf 013e 6920 30bd 666d 4bbd f557 aebd
00000150: d499 c4bd 9513 f83d 2051 b83d dcae 50be
00000160: 0dec 70be df65 10be f036 0dbe 4d2d dabd
00000170: 4380 89be 405e e63c 02d4 f4bc 5765 4b3d
00000180: ee40 95be c330 0dbe 2397 333d 5b96 3abd
00000190: d9d8 0dbe 5962 8e3d 9e59 af3c d105 a9bd
000001a0: 7cdd 89bb 59f6 eebd b6f9 c23d d8bd 9d3d
000001b0: a16b 59bd 23d5 3b3d 6467 2ebe e189 843c
000001c0: 92fb c63d 3a24 4abe 4ffd 8f3d 2cbb 0abe
000001d0: 5328 643d 09e9 733e 81b0 a2bd e3f2 5ebd
000001e0: 038d 6fbe 1ec5 52be af50 7f3e a38f c1bd
000001f0: 1709 4ebd 2757 26be a313 e23d cbe5 363d
00000200: 1092 393d 797f a9bd 4c43 5f3e 615f 713e
00000210: 5962 b5bd c172 5f3e 0867 5e3e 2b39 c73d
00000220: 89bd 8abd 77e8 143e 450a 1d3d 6bfb 66be
00000230: 3c39 1cbe 994d 4a3c 1b4a 4bbe 784b 85be
00000240: 0a84 a8bd b9b5 bd3c 2f4d ecbc 5285 16be
00000250: 8cfa 31be 1ece aa3d 247c a9bd 4c32 683d
00000260: dec1 59be bd00 24be e31a d43d b3e1 363c
00000270: b1b1 acbc aaaa d13c e758 41be e360 78be
00000280: 684c 87bd e4e4 123d d0db 71bd 3f93 c03d
00000290: 2917 07be 429a 393e a747 fdbd a3ff 3a3c
000002a0: 8f9a c93d 201c 0cbe 8ba5 0d3e 436b 993d
000002b0: 71b3 853d 1599 243e e4a1 1b3e 8956 55be
000002c0: 85b2 04be 1676 0f3e f173 513e a825 863d
000002d0: 1c35 3ebe 822e 233d 3ab8 443d f577 37bd
000002e0: ba9f 663e ea05 3cbe 91f0 a4bd d488 cbbd
000002f0: cc27 6b3e 883b 64bc e2ac 5ebe 1864 bfbd
00000300: e134 98bd 40c2 553d 8684 4c3d be5d 0a3c
00000310: 1d19 c43c dd40 36be a332 b7bc d445 033e
00000320: c551 a0be b44f 5abe 1557 e6bd df15 85bd
00000330: e639 39bd edf4 78bd 965f dcbc 5a09 3fbe
00000340: e3de 79be 0121 febd 3455 7b3c 8c8c 333e
00000350: 7e63 b1bc 738a 423d 82e1 8abe 182b af3d
00000360: e442 c93d 2ada 043e 89db 463e 70d6 503d
00000370: 497c 7e3d ffcd 4d3d aa5e 1cbe 1fee 25bd
00000380: 3519 143d 576c bbbb 3c1e 6ebd e406 453e
00000390: b4d3 443d 6f28 b8bd 7f0d 6338 83ce 863d
000003a0: b82a 32be 88aa 1abe 40ac 36be beda 78be
000003b0: 3682 4abe c4cc 74be eb67 18be ab99 353d
000003c0: 81d5 5cbd 243c bc3c aaf9 8fbd 1821 233e
000003d0: 36f9 353e f861 21be 52a2 febd c5a7 a3bd
000003e0: ef18 433e 991a 2e3d 0798 64bb e54d ddbd
000003f0: 64f4 ff3d c357 493e 3a6c 3c3e 03fb 60be

cnn1.0.bias f4 [16]
-0.27407673 0.0035494003 -0.021348778 0.08643409 -0.018093932 -0.11389518 0.10680244 0.049370505
0.020084465 -0.048604626 0.19414976 0.007022989 0.14625914 0.16976196 -0.05387057 -0.15688673
00000000: c953 8cbe 0e9d 683b a2e3 aebc 5b04 b13d
00000010: ba39 94bc e041 e9bd 3dbb da3d ba38 4a3d
00000020: 2d88 a43c a515 47bd 32cf 463e 1a21 e63b
00000030: f5c4 153e 14d6 2d3e 63a7 5cbd eaa6 20be

cnn1.1.weight f4 [16]
0.92244977 0.9634332 0.9467258 1.083435 1.017504 0.9109571 0.98297197 0.9489985
1.0588502 1.2101777 0.9888163 1.0620012 1.1472259 0.9224255 1.1401128 0.79232883
00000000: ab25 6c3f 8fa3 763f 9f5c 723f 00ae 8a3f
00000010: 923d 823f 7c34 693f 0da4 7b3f 91f1 723f
00000020: 6788 873f 1ae7 9a3f 1123 7d3f a8ef 873f
00000030: 4cd8 923f 1424 6c3f 37ef 913f 10d6 4a3f

cnn1.1.bias f4 [16]
-0.047228184 -0.110171065 -0.22648364 -0.14155991 -0.17626502 -0.20444924 -0.058999423 -0.20725232
-0.09626553 -0.17386773 0.0123586785 -0.18665272 -0.13591495 -0.1692038 -0.13944742 -0.27729657
00000000: 5772 41bd 5ea1 e1bd 54eb 67be 15f5 10be
00000010: d17e 34be 245b 51be 61a9 71bd f439 54be
00000020: dd26 c5bd 620a 32be 0e7c 4a3c e421 3fbe
00000030: 4a2d 0bbe c343 2dbe 4ecb 0ebe d1f9 8dbe

cnn1.1.running_mean f4 [16]
-0.3300092 -0.077150345 -0.09311992 -0.10494545 -0.09490002 -0.13784643 0.07825406 0.0075501576
-0.10303984 -0.18469463 0.16913009 -0.10809283 0.0616693 0.12136148 -0.118366145 -0.06552884
00000000: f7f6 a8be 0001 9ebd a8b5 bebd a4ed d6bd
00000010: f15a c2bd 9d27 0dbe aa43 a03d 5067 f73b
00000020: 8d06 d3bd 9720 3dbe 7030 2d3e c65f ddbd
00000030: f398 7c3d 5e8c f83d f369 f2bd fc33 86bd

cnn1.1.running_var f4 [16]
0.014331234 0.07144747 0.018944938 0.17394613 0.0262346 0.055203028 0.038858417 0.072854914
0.08594175 0.10189059 0.026779624 0.10837313 0.061397407 0.04016647 0.052847173 0.037853483
00000000: 8dcd 6a3c 0d53 923d 6a32 9b3c ef1e 323e
00000010: f2e9 d63c 921c 623d 012a 1f3d f534 953d
00000020: 3a02 b03d 03ac d03d f160 db3c bbf2 dd3d
00000030: d97b 7b3d 9985 243d 4776 583d 410c 1b3d

cnn2.0.weight f4 [32, 16, 5, 5]
0.16053641 0.033059064 -0.12732758 -0.071373545 0.004367741 0.04140787 -0.036162257 -0.06035245
0.0536498 -0.013807966 -0.00043805942 -0.054361943 -0.04572335 0.15424319 0.049078934 -0.012780358
-0.09426149 0.008517495 0.03217991 0.041107617 -0.109712884 -0.07986412 -0.0028582194 -0.054892898
-0.053260077 0.0053336895 -0.015816312 -0.009563348 0.051481795 0.083791085 -0.003546751 0.008365645
0.102736995 0.05583561 0.038203936 0.03220588 0.017240053 0.03000623 -0.07336892 -0.07766192
0.008132832 0.034903318 0.022661781 0.01091395 0.024042446 0.05424521 -0.03302314 -0.028654993
-0.0019197854 0.023577549 0.12396515 0.038801722 -0.18099429 -0.10753776 -0.05070946 0.08631009
-0.025589522 -0.03985476 -0.040982775 0.22664005 -0.024860736 -0.0213811 -0.020373195 0.015233016
-0.031185789 -0.015913654 -0.0030933847 -0.118918724 -0.04509873 0.15403868 -0.15605932 -0.13967732
-0.08006923 -0.0029011236 0.01972704 0.027586725 -0.052237276 -0.09173393 -0.026189473 -0.02049694
-0.042215396 -0.081284404 -0.072840996 -0.0033855387 -0.009414113 0.0019732069 0.074445754 0.011616254
-0.06711918 -0.16801181 0.07231598 0.133531 -0.0447153 -0.1260244 -0.055010214 0.07186774
0.005000444 0.018975412 0.03239677 0.027953148 -0.108488835 -0.1632491 -0.09324871 0.084032
-0.043824688 -0.07953201 0.03153611 -0.008916862 0.16773598 0.08465701 -0.02782482 0.061757017
-0.021929037 0.11641441 0.08994717 -0.000113595066 0.014867984 -0.04570284 0.07527589 -0.03196887
-0.09789041 -0.0005352434 -0.060541276 -0.116882704 -0.15690747 0.058113 0.0023326043 -0.056369442
-0.014655892 0.026968224 0.09112265 -0.051325034 -0.0651133 -0.012412383 -0.09832873 -0.000110853565
-0.10680309 0.0090648215 0.02915679 -0.004405924 -0.04806365 0.062378313 -0.00760545 0.058436736
0.10829826 0.05594904 -0.03016904 -0.01597536 0.037071817 0.077385694 0.0077942205 -0.059343703
-0.09813856 -0.14482808 -0.054416604 0.03947084 -0.10906635 -0.11928571 0.010007832 0.019406265
-0.008999125 -0.10913627 -0.04053677 0.103942625 0.02105136 -0.021204242 -0.04581561 0.034826502
0.06760793 0.029734923 -0.021440042 0.015087856 -0.025007244 -0.06474842 -0.05103301 -0.09827376
-0.0107437 0.057200782 -0.098585434 -0.04993165 -0.06357719 0.0055025285 0.08102878 0.036368474
0.009616577 0.019438744 0.047098424 0.123148434 0.00452502 0.082756564 0.0058556637 0.016109912
0.07006789 0.038145863 0.055071436 -0.009656601 0.011038229 -0.06974517 -0.03185543 -0.038811
-0.016563002 0.09466403 -0.07467281 -0.08225395 -0.09138019 0.050780687 0.058011096 -0.11079357
-0.08839755 -0.07650691 -0.016703939 -0.053445928 -0.16867429 -0.08981459 0.05552515 0.009417144
-0.044296686 -0.06201059 0.070007615 0.010928334 -0.06703682 0.011448922 0.008265881 -0.016522702
-0.012218516 0.023261832 -0.11999639 0.038451843 -0.025063194 0.060624238 0.057428453 -0.046870664
0.008088524 -0.13857815 0.0066842493 0.096037805 -0.12739709 -0.15064548 -0.054215938 -0.07048178
-0.059420235 -0.14695673 -0.00941001 -0.06131159 -0.050968613 -0.110796936 -0.07929445 0.01904663
0.081079535 0.08374446 0.052853756 -0.049936727 -0.08480575 -0.04490601 0.021833232 0.114785254
00000000: a863 243e f168 073d 2962 02be 4b2c 92bd
00000010: 441f 8f3b 4c9b 293d e01e 14bd 2134 77bd
00000020: e5bf 5b3d cf3a 62bc 57ab e5b9 a1aa 5ebd
00000030: 6848 3bbd edf1 1d3e fe06 493d b564 51bc
00000040: 2b0c c1bd f78c 0b3c 15cf 033d 7660 283d
00000050: 26b1 e0bd cd8f a3bd f750 3bbb 60d7 60bd
00000060: 3d27 5abd 3bc6 ae3b 3691 81bc 97af 1cbc
00000070: 93de 523d a99a ab3d 9c70 68bb 0f10 093c
00000080: c667 d23d e1b3 643d bb7b 1c3d 50ea 033d
00000090: 033b 8d3c a0cf f53c 7242 96bd 360d 9fbd
000000a0: 923f 053c c8f6 0e3d 33a5 b93c 6dd0 323c
000000b0: aaf4 c43c 3a30 5e3d 4643 07bd e0bd eabc
000000c0: 4fa1 fbba b425 c13c 71e1 fd3d 8eee 1e3d
000000d0: 9156 39be c23c dcbd b9b4 4fbd 58c3 b03d
000000e0: 1ea1 d1bc bf3e 23bd 8edd 27bd 5414 683e
000000f0: bea8 cbbc 6b27 afbc b0e5 a6bc e693 793c
00000100: 5779 ffbc 5a5d 82bc 62ba 4abb a98b f3bd
00000110: 72b9 38bd 51bc 1d3e 04ce 1fbe 9207 0fbe
00000120: 56fb a3bd c720 3ebb 9a9a a13c 8efd e13c
00000130: c1f6 55bd 00df bbbd 4e8b d6bc 33e9 a7bc
00000140: 0dea 2cbd 7078 a6bd a92d 95bd eadf 5dbb
00000150: a73d 1abc eb50 013b 0477 983d 1a52 3e3c
00000160: c875 89bd 4a0b 2cbe 671a 943d 5abc 083e
00000170: 6427 37bd 8a0c 01be 6452 61bd 652f 933d
00000180: c4da a33b 5372 9b3c 7ab2 043d 00fe e43c
00000190: 652f debd c62a 27be 2ef9 bebd f818 ac3d
000001a0: 8481 33bd aee1 a2bd 022c 013d 0818 12bc
000001b0: fbc2 2b3e a860 ad3d e0f0 e3bc edf4 7c3d
000001c0: 86a4 b3bc ae6a ee3d 3936 b83d e339 eeb8
000001d0: d898 733c e732 3bbd 3f2a 9a3d caf1 02bd
000001e0: c47a c8bd 944f 0cba 21fa 77bd 3360 efbd
000001f0: 5aac 20be e607 6e3d 9bde 183b a5e3 66bd
00000200: 441f 70bc 77ec dc3c 839e ba3d 333a 52bd
00000210: 1f5a 85bd 4f5d 4bbc 9360 c9bd 0e7a e8b8
00000220: 94bb dabd 9e84 143c 38da ee3c 925f 90bb
00000230: 64de 44bd 6780 7f3d 2437 f9bb 5c5b 6f3d
00000240: 7acb dd3d d22a 653d 1025 f7bc c2de 82bc
00000250: 9ed8 173d 647c 9e3d a966 ff3b 6212 73bd
00000260: dffc c8bd d04d 14be f2e3 5ebd 2dac 213d
00000270: 2e5e dfbd 114c f4bd e4f7 233c e3f9 9e3c
00000280: 1171 13bc d682 dfbd e209 26bd dfdf d43d
00000290: e773 ac3c 85b4 adbc 26a9 3bbd 3ca6 0e3d
000002a0: 0776 8a3d a796 f33c 07a3 afbc 0e33 773c
000002b0: fedb ccbc d29a 84bd fd07 51bd c143 c9bd
000002c0: 5806 30bc 5e4b 6a3d 29e7 c9bd 2185 4cbd
000002d0: c234 82bd 8e4e b43b 6bf2 a53d 1cf7 143d
000002e0: d98e 1d3c 003e 9f3c 47ea 403d 3f35 fc3d
000002f0: 9e46 943b 467c a93d dee0 bf3b eff8 833c
00000300: c17f 8f3d d63e 1c3d 9692 613d b836 1ebc
00000310: b0d9 343c 8ed6 8ebd d77a 02bd 48f8 1ebd
00000320: 22af 87bc 37df c13d 0fee 98bd c274 a8bd
00000330: 8925 bbbd 69ff 4f3d 0b9d 6d3d bde7 e2bd
00000340: c609 b5bd a8af 9cbd b3d6 88bc 1eea 5abd
00000350: f4b8 2cbe b6f0 b7bd 576e 633d 5d4a 1a3c
00000360: 7170 35bd d1fe 7dbd 2760 8f3d c10c 333c
00000370: 9a4a 89bd 4294 3b3c 9e6d 073c 9e5a 87bc
00000380: 2c30 48bc 998f be3c abc0 f5bd ae7f 1d3d
00000390: 5451 cdbc 1f51 783d 193a 6b3d 74fb 3fbd
000003a0: bb85 043c 6ee7 0dbe 8c07 db3b 78af c43d
000003b0: 6274 02be cf42 1abe 8811 5ebd c058 90bd
000003c0: a262 73bd d37b 16be 712c 1abc dd21 7bbd
000003d0: 77c4 50bd 81e9 e2bd 2165 a2bd ae07 9c3c
000003e0: 070d a63d 3782 ab3d 2e7d 583d 748a 4cbd
000003f0: a3ae adbd 5def 37bd 9bdb b23c 8814 eb3d

cnn2.0.bias f4 [32]
-0.057277694 0.043633927 -0.020095998 -0.01586214 0.018378401 -0.04315683 0.028592937 -0.026133316
-0.013029049 -0.0051670615 -0.050637007 -0.030740397 -0.017102538 0.012408795 0.018987319 0.048013516
-0.0596875 0.024479281 -0.021449916 0.013334289 -0.05160912 0.034328494 0.005874483 -0.052132014
-0.0070946557 -0.004196924 0.017131567 0.051416907 -0.041921984 -0.0047061765 0.013600986 -0.001572441
00000000: 049c 6abd 7db9 323d 5da0 a4bc 52f1 81bc
00000010: 4d8e 963c 37c5 30bd bc3b ea3c 8915 d6bc
00000020: cb77 55bc 7450 a9bb c068 4fbd 49d3 fbbc
00000030: 9f1a 8cbc 424e 4b3c 4b8b 9b3c d2a9 443d
00000040: e17a 74bd c688 c83c bcb7 afbc 1078 5a3c
00000050: 1664 53bd 099c 0c3d bc7e c03b 6188 55bd
00000060: 497a e8bb 5a86 89bb 8057 8c3c 899a 523d
00000070: 63b6 2bbd 4536 9abb acd6 5e3c 5d1a ceba

cnn2.1.weight f4 [32]
1.1332114 1.0129328 1.1497335 0.99580956 1.0725367 1.1561781 1.0551574 1.0745912
1.1126509 1.0352572 1.213288 1.0441711 0.96324813 1.0733223 1.0504074 1.1168075
0.9974894 0.92122793 1.1668103 1.0838956 1.1067868 1.1633554 1.0117813 1.0919627
1.0798324 1.0934395 1.1202337 1.126841 1.1050737 0.9854324 1.0880439 1.2294827
00000000: 120d 913f c8a7 813f 782a 933f 60ed 7e3f
00000010: e248 893f a5fd 933f 660f 873f 348c 893f
00000020: 586b 8e3f 4f83 843f 054d 9b3f 66a7 853f
00000030: 6e97 763f a062 893f c073 863f 8cf3 8e3f
00000040: 775b 7f3f 98d5 6b3f 0a5a 953f 17bd 8a3f
00000050: 31ab 8d3f d4e8 943f 0d82 813f 6fc5 8b3f
00000060: f337 8a3f d3f5 8b3f d163 8f3f 533c 903f
00000070: 0e73 8d3f 4c45 7c3f 0645 8b3f b05f 9d3f

cnn2.1.bias f4 [32]
-0.3060133 -0.3143573 -0.30704626 -0.36729658 -0.23717943 -0.16990216 -0.4250549 -0.21483777
-0.13921173 -0.24517831 -0.22182837 -0.12966831 -0.39889023 -0.24481733 -0.1528353 -0.21615694
-0.1821478 -0.24185394 -0.1995506 -0.13560247 -0.2649083 -0.35518354 -0.3262823 -0.31503156
-0.2810515 -0.24669951 -0.25609475 -0.152261 -0.19865891 -0.3011678 -0.14673169 -0.36320052
00000000: c6ad 9cbe 71f3 a0be 2b35 9dbe 4c0e bcbe
00000010: 2adf 72be d5fa 2dbe cca0 d9be 6ffe 5bbe
00000020: 858d 0ebe 0610 7bbe fa26 63be c5c7 04be
00000030: 573b ccbe 65b1 7abe db80 1cbe 3f58 5dbe
00000040: f484 3abe 8fa8 77be fe56 4cbe 60db 0abe
00000050: 10a2 87be 9eda b5be 790e a7be d14b a1be
00000060: fbe5 8fbe cc9e 7cbe da1e 83be 4fea 1bbe
00000070: 3e6d 4bbe aa32 9abe d540 16be 6bf5 b9be

cnn2.1.running_mean f4 [32]
-0.5077802 0.014967301 -0.43085977 -0.49709803 0.6084369 -0.39073184 -0.23238184 -0.6677986
0.6636158 0.49682385 -0.15412436 -0.54828566 -0.16523162 0.7368815 -0.15460244 -0.6861492
0.0015224323 -0.33918005 -0.39902088 -0.51191276 0.5365914 -0.09255731 1.5057172 0.59274095
0.13633542 -0.17321399 0.10099134 -0.17129195 -0.67606914 -0.4237333 -0.17581615 -0.9175905
00000000: e2fd 01bf 6939 753c a799 dcbe a283 febe
00000010: 85c2 1b3f 010e c8be 81f5 6dbe d9f4 2abf
00000020: bae2 293f b25f fe3e c7d2 1dbe 735c 0cbf
00000030: 7a32 29be 44a4 3c3f 1a50 1ebe 79a7 2fbf
00000040: 5a8c c73a 02a9 adbe 774c ccbe b70c 03bf
00000050: 0e5e 093f b08e bdbd 57bb c03f dfbd 173f
00000060: 839b 0b3e 025f 31be 8cd4 ce3d 2867 2fbe
00000070: de12 2dbf 92f3 d8be 2609 34be 36e7 6abf

cnn2.1.running_var f4 [32]
0.8882082 0.82151616 0.8021634 1.1386558 1.1275572 1.4376006 0.88432986 1.0152277
1.615571 0.9752374 1.077101 1.2056012 0.93570024 0.6351027 0.7318511 0.930785
0.825983 1.255966 1.6387401 1.3702024 0.9134284 1.1363418 0.9518062 1.0982565
1.1521407 1.0561006 1.2309743 1.1505159 0.8526082 0.9481598 1.0497755 0.8431392
00000000: 9d61 633f e24e 523f 955a 4d3f 79bf 913f
00000010: cb53 903f 4c03 b83f 7163 623f fbf2 813f
00000020: 08cb ce3f 29a9 793f 72de 893f 2451 9a3f
00000030: 0d8a 6f3f 1796 223f 985a 3b3f ed47 6e3f
00000040: 9f73 533f 7ec3 a03f 3cc2 d13f cb62 af3f
00000050: 72d6 693f a673 913f 92a9 733f ab93 8c3f
00000060: 5979 933f 4e2e 873f 9190 9d3f 1b44 933f
00000070: 8844 5a3f 9aba 723f 0b5f 863f f8d7 573f

fc.weight f4 [10, 1568]
0.033959277 -0.01951197 0.011019298 0.015553296 -0.014610871 -0.06197219 -0.048246782 -0.009011543
-0.09002049 -0.08367858 -0.022147363 -0.0103493035 -0.07788606 -0.04058004 -0.082911804 -0.08629905
0.0019846312 0.05195726 0.033781502 0.08181218 0.0070128297 -0.02128888 -0.040857445 0.03756209
-0.010050244 0.064346805 0.09777266 0.0028833624 0.058266908 0.0131607065 -0.00570544 -0.1406282
0.017954718 -0.004054761 -0.031980973 0.053906858 0.020238394 0.06283237 -0.17215474 -0.123571694
-0.08138345 -0.06723039 0.07977663 0.032224827 0.04629034 -0.3240072 -0.35767162 -0.13825813
0.04021485 -0.075985305 -0.020113483 -0.033351608 0.0034632739 -0.010738255 -0.04564449 -0.06761017
-0.022258602 0.0030909001 0.023155637 -0.04058252 -0.02076957 -0.003853235 -0.041814372 0.06755759
0.034865737 0.037030205 -0.06698457 -0.020622637 -0.008790128 0.041055586 0.061216585 0.065799855
-0.06944868 -0.07519754 -0.017531617 0.015436336 0.034261428 0.0014118624 0.04034662 0.022666015
0.06907065 -0.049226474 0.03374733 0.016983537 -0.06835641 -0.07506947 0.035585556 -0.058471933
0.029775564 -0.029127179 0.05775892 -0.005561828 -0.04189363 0.0067437864 -0.18734442 -0.2748475
-0.11646396 -0.088180676 0.046065323 -0.038168743 0.06579599 -0.03665218 -0.06206127 0.0077228993
0.052549116 0.005119025 -0.005972116 -0.05870708 0.015630547 -0.004854698 0.10738611 0.03622513
0.050274383 0.010743964 -0.017897127 0.056809667 0.07617002 0.048907846 -0.09105985 0.0013550099
0.042989068 0.026099807 -0.080041036 0.0413928 0.10543147 -0.053892102 -0.05146172 0.00291601
0.035983935 -0.17930736 -0.04779721 0.048220556 0.060666412 0.10389667 0.0012497464 0.050304808
-0.04340159 -0.003996164 -0.018940678 0.022926087 0.11051873 0.029806241 0.04234407 -0.0038842994
-0.043885447 -0.017890627 0.008868787 0.0061369245 -0.010891825 -0.045490343 -0.008674812 -0.03150825
0.030220758 0.022440769 0.0037149412 -0.11178471 -0.009778036 -0.01765366 0.10107137 0.032975134
-0.05202939 -0.014308255 -0.00020316121 -0.059924033 -0.0796808 0.03373421 0.02335215 -0.093716666
-0.034984224 0.015662737 0.051725812 0.025193924 -0.015954033 -0.06901284 -0.00660438 -0.026139738
-0.022482505 0.06403391 -0.0751331 -0.050749592 0.01335909 0.046036165 -0.07593383 0.020888003
0.07131701 -0.017724602 -0.02700659 0.021932796 0.012862524 0.021457503 0.007068888 0.040482596
0.009979343 -0.030554214 -0.034148682 -0.009432575 0.030220564 0.035159368 0.0048598386 0.020922182
-0.052224316 -0.071046494 0.017743405 0.029860083 -0.029106516 -0.043908533 -0.07102761 -0.16005772
-0.17221767 0.0066517135 0.043827545 -0.04815023 -0.034627248 0.043506015 0.0051453896 -0.087228164
-0.053089265 -0.055538893 -0.010859603 0.07907474 0.11884493 -0.009457831 0.09385286 0.0031859376
0.019420182 0.021591833 0.01927791 0.08965265 0.066213004 0.07472544 0.020345723 -0.028307155
-0.023615576 -0.019390566 0.049598955 -0.03369343 0.011457594 0.005343399 -0.0012736735 -0.00571127
-0.031089177 -0.078299284 -0.07710059 -0.0025068708 0.013299417 -0.03789893 -0.0009557348 -0.02897578
-0.07856147 -0.03318653 0.0021757437 -0.0045390436 0.0064838114 -0.05923413 -0.018018747 -0.038063
00000000: e218 0b3d 91d7 9fbc 498a 343c 40d3 7e3c
00000010: 6f62 6fbc 8dd6 7dbd 6b9e 45bd 27a5 13bc
00000020: aa5c b8bd ad5f abbd 636e b5bc 2090 29bc
00000030: ba82 9fbd 4237 26bd aacd a9bd 8ebd b0bd
00000040: 9610 023b 23d1 543d 795e 0a3d 258d a73d
00000050: e1cb e53b 0466 aebc 235a 27bd b5da 193d
00000060: c7a9 24bc 42c8 833d 083d c83d cbf6 3c3b
00000070: 48a9 6e3d 01a0 573c b3f4 babb d700 10be
00000080: c615 933c cddd 84bb 7bfe 02bd 70cd 5c3d
00000090: fdca a53c 42ae 803d 5549 30be 2813 fdbd
000000a0: 5eac a6bd 16b0 89bd ee61 a33d 2efe 033d
000000b0: f19a 3d3d 46e4 a5be bc20 b7be 8a93 0dbe
000000c0: 54b8 243d 2f9e 9bbd 08c5 a4bc b29b 08bd
000000d0: 18f8 623b 82ef 2fbc b7f5 3abd 3377 8abd
000000e0: ac57 b6bc b390 4a3b e4b0 bd3c db39 26bd
000000f0: f224 aabc 8e86 7cbb 8c45 2bbd a25b 8a3d
00000100: 60cf 0e3d fcac 173d 352f 89bd cef0 a8bc
00000110: 7804 10bc e729 283d 3ebe 7a3d 13c2 863d
00000120: 1c3b 8ebd 2b01 9abd 779e 8fbc b0e8 7c3c
00000130: b655 0c3d 3e0e b93a 7f42 253d 14ae b93c
00000140: ea74 8d3d b3a1 49bd a43a 0a3d 0f21 8b3c
00000150: 72fe 8bbd 06be 99bd 29c2 113d 4480 6fbd
00000160: e2eb f33c 1f9c eebc 9e94 6c3d ff3f b6bb
00000170: a898 2bbd fbfa dc3b 37d7 3fbe d0b8 8cbe
00000180: a884 eebd 1298 b4bd feae 3c3d d456 1cbd
00000190: 0cc0 863d 9920 16bd f533 7ebd 6010 fd3b
000001a0: be3d 573d 7ebd a73b bdb1 c3bb d676 70bd
000001b0: a20b 803c 2914 9fbb 40ed db3d cd60 143d
000001c0: 83ec 4d3d 7407 303c ff9c 92bc 41b1 683d
000001d0: 07ff 9b3d 9853 483d 967d babd 969a b13a
000001e0: 4e15 303d 43cf d53c 8eec a3bd 7f8b 293d
000001f0: 74ec d73d f7bd 5cbd 86c9 52bd 881a 3f3b
00000200: e463 133d 599c 37be 02c7 43bd eb82 453d
00000210: 587d 783d c7c7 d43d 88ce a33a 6a0c 4e3d
00000220: dec5 31bd 41f2 82bb 7b29 9bbc 7dcf bb3c
00000230: a557 e23d 382c f43c fa70 2d3d bb8f 7ebb
00000240: 3ac1 33bd 5d8f 92bc 644e 113c 4118 c93b
00000250: a073 32bc 1554 3abd cc20 0ebc cb0e 01bd
00000260: 8691 f73c b4d5 b73c 5f76 733b 62ef e4bd
00000270: 0e34 20bc 699e 90bc 82fe ce3d ef10 073d
00000280: c51c 55bd 2c6d 6abc ac07 55b9 e772 75bd
00000290: b02f a3bd e22c 0a3d 024d bf3c 86ee bfbd
000002a0: 9e4b 0fbd 244f 803c 72de 533d 7d63 ce3c
000002b0: 08b2 82bc 9b56 8dbd 8e69 d8bb 0123 d6bc
000002c0: 3b2d b8bc 3624 833d 62df 99bd cede 4fbd
000002d0: 16e0 5a3c 6b90 3c3d 3283 9bbd 511d ab3c
000002e0: a70e 923d 2f33 91bc ed3c ddbc 68ac b33c
000002f0: 56bd 523c a5c7 af3c 21a2 e73b 14d1 253d
00000300: 6680 233c d54c fabc 7ddf 0bbd 168b 1abc
00000310: 1e91 f73c 4503 103d 483f 9f3b ff64 ab3c
00000320: 2ae9 55bd d380 91bd 9e5a 913c 229d f43c
00000330: ca70 eebc 6fd9 33bd ec76 91bd 2ce6 23be
00000340: d459 30be 9ef6 d93b 8384 333d 2d39 45bd
00000350: 4dd5 0dbd 5d33 323d a89a a83b aea4 b2bd
00000360: 2174 59bd c07c 63bd 7aec 31bc f0f1 a13d
00000370: f864 f33d 05f5 1abc ee35 c03d 2acb 503b
00000380: 1317 9f3c 5be1 b03c b5ec 9d3c cf9b b73d
00000390: af9a 873d a709 993d 13ac a63c 68e4 e7bc
000003a0: 7475 c1bc f7d8 9ebc 4628 4b3d 1f02 0abd
000003b0: a2b8 3b3c ae17 af3b 64f1 a6ba 9b25 bbbb
000003c0: bbae febc 605b a0bd eae6 9dbd 504a 24bb
000003d0: cce5 593c e93b 1bbd 478a 7aba 9d5e edbc
000003e0: d6e4 a0bd 99ee 07bd ec96 0e3b 42bc 94bb
000003f0: 2776 d43b 7d9f 72bd 0d9c 93bc f3e7 1bbd

fc.bias f4 [10]
0.04881945 0.05025635 -0.008494058 0.00069823465 -0.036578603 -0.027724963 -0.010947011 -0.0051274067
-0.04134125 -0.0051862057
00000000: e7f6 473d 9ad9 4d3d a92a 0bbc bc09 373a
00000010: 72d3 15bd 761f e3bc 185b 33bc ce03 a8bb
00000020: 7155 29bd 0cf1 a9bb
